web/public/model.onnx (onnx, 56170 bytes, 16 tensors)

input_conv.conv.bias f4 [64]
0	0x3ca76388	0.020433202
1	0x3de84813	0.11341872
2	0xbdbc3924	-0.09190586
3	0x3ce93f6e	0.028472628
4	0x3e710b5c	0.2353949
5	0x3e52d888	0.20590413
6	0xbda1617e	-0.07879923
7	0x3e436fa0	0.1908555
8	0xbbe79185	-0.007066908
9	0x3e22c9f3	0.1589735
10	0x3dc6a728	0.09699851
11	0x3e41833a	0.18897715
12	0xbdd2ea55	-0.102986015
13	0x3e858800	0.26080322
14	0xbde7f256	-0.11325519
15	0x3d2560a3	0.040375363
16	0xbda5c1ae	-0.08093582
17	0xbda5d651	-0.08097518
18	0x3d287d31	0.041135017
19	0x3c1fa543	0.009743991
20	0x3b39c410	0.0028345622
21	0x3d42a47d	0.04752015
22	0x3e81d4ec	0.2535776
23	0x3e31821c	0.17334789
24	0x3e04bd69	0.12962879
25	0x3e1481b3	0.14502601
26	0x3e2513ec	0.16120881
27	0xbc858291	-0.01629761
28	0x3dadd534	0.08487931
29	0x3c64f6f9	0.0139748985
30	0xbe287974	-0.1645258
31	0xbdbf3f19	-0.09338207
32	0x3c851ed6	0.016250055
33	0x3ba643a0	0.0050739795
34	0x3c7c34d3	0.015393454
35	0x3bc56d0f	0.0060249637
36	0x3d321827	0.043480065
37	0x3e12dbe0	0.14341688
38	0xbd77b207	-0.060472514
39	0x3e4bccdd	0.19902368
40	0x3e5ca458	0.21547067
41	0xbe3f1d79	-0.18663587
42	0xbe15c4d7	-0.1462587
43	0xbe1ed75e	-0.15511844
44	0xbc5d5ede	-0.013511388
45	0xbd65e6ca	-0.0561283
46	0x3de5f079	0.11227507
47	0xbda1b363	-0.078955434
48	0xbe0010a1	-0.12506343
49	0xbd2afa04	-0.04174234
50	0xbd8843d8	-0.06653565
51	0x3e8858ce	0.26630253
52	0xbd00635f	-0.031344768
53	0xbdf1e4ed	-0.11811242
54	0x3d85c881	0.06532384
55	0x3cd18c4f	0.0255796
56	0x3e763c52	0.24046448
57	0x3e22f09a	0.15912095
58	0x3e61c093	0.22046117
59	0xbe1ea243	-0.15491585
60	0x3e203ae3	0.15647464
61	0x3e4083c5	0.18800266
62	0xbda6155e	-0.08109544
63	0x3e80636d	0.25075856

res_blocks.0.conv1.bias f4 [64]
0	0x3b8d7076	0.004316385
1	0xbcdf7517	-0.027277512
2	0xbc6b129e	-0.0143477
3	0xbc000ecf	-0.007816031
4	0xbd5b9275	-0.05360647
5	0x3beaaa1a	0.007161391
6	0x3c988dca	0.018622298
7	0x3cfbb55a	0.030726124
8	0xbced0dc2	-0.028937224
9	0x3d0c5c9d	0.03426801
10	0xbd3a14f0	-0.045430124
11	0xbc35d122	-0.011097224
12	0x3cca20da	0.024673868
13	0xbcb9688e	-0.022632863
14	0x3d09277d	0.033484925
15	0x3b673224	0.003527769
16	0x3ca4658e	0.020067956
17	0x3ccd30f2	0.025047753
18	0xbce75e1f	-0.028243123
19	0x3d66d5c2	0.0563562
20	0xbd101349	-0.03517464
21	0x3d207619	0.039175127
22	0xbcc163e0	-0.023607194
23	0x3c20d650	0.009816721
24	0x3bc2f488	0.0059495606
25	0x3b73ebbf	0.0037219373
26	0xbb603b77	-0.0034215131
27	0xbd1360d6	-0.03598102
28	0x3d0c306e	0.034225874
29	0xbcf54902	-0.02994204
30	0x3cca0a0e	0.024662998
31	0xbcbae307	-0.022813333
32	0x3bb6a59a	0.0055739405
33	0xbd0c92e1	-0.034319762
34	0x3c3c9a83	0.011511448
35	0x3d406d50	0.04697925
36	0xbcb1734c	-0.021661423
37	0x3cf725fd	0.030169481
38	0x3c3ccccf	0.01152344
39	0xbb2eadc0	-0.0026653856
40	0xbce374fe	-0.027765747
41	0xbd409c50	-0.04702407
42	0x3d7fed90	0.062482417
43	0xbd092291	-0.03348023
44	0x3d3426e9	0.04398242
45	0x383b4d2c	4.4656146e-05
46	0x3caf80e8	0.021423772
47	0x3cf6543a	0.03006946
48	0xbb2bc1ea	-0.002620811
49	0xb99106d8	-0.00027661654
50	0xbbb2ad87	-0.005452815
51	0x3d0c2386	0.034213565
52	0xbbebf6f2	-0.007201069
53	0x3cab6c9d	0.020925814
54	0xbbe075a2	-0.0068499604
55	0x3d0759ef	0.03304475
56	0xbcb2a371	-0.02180645
57	0xbb9ffe22	-0.00488259
58	0xbc55e74a	-0.013055632
59	0xbc86b368	-0.01644297
60	0x3c7c6fc5	0.015407507
61	0x3d46f5bf	0.048574205
62	0xbd24f419	-0.040271852
63	0x3ca0c6bf	0.01962602

res_blocks.0.conv2.bias f4 [64]
0	0xba1d6963	-0.00060047786
1	0x3c4e6c23	0.012599024
2	0x3cf8802d	0.030334556
3	0xbce7e55a	-0.028307606
4	0x3d5a43c7	0.053287294
5	0x3d333bc3	0.043758165
6	0x3c931665	0.017955014
7	0xbcd1a51a	-0.025591422
8	0xbc7f6519	-0.015588068
9	0x3c0f72d8	0.008755408
10	0x3cf96a82	0.030446295
11	0xbc704b96	-0.014666459
12	0x3c2f8736	0.010713389
13	0x3c025ddb	0.007956947
14	0xbb8a7e42	-0.004226477
15	0xba68bd49	-0.00088783033
16	0xbd2a0e04	-0.041517273
17	0xbcd73185	-0.02626873
18	0xbc923f9b	-0.017852595
19	0x3cf82eac	0.030295692
20	0x3c95821d	0.01825052
21	0xbc43df37	-0.011955074
22	0x3d132ebb	0.035933238
23	0xbb6499f2	-0.0034881798
24	0xbcfbd299	-0.03074007
25	0x3d7faaa3	0.06241859
26	0x3c6f76db	0.01461574
27	0x3b20b27a	0.0024520443
28	0x3d053bdf	0.0325278
29	0x3d273416	0.040821157
30	0x3bc3a77f	0.005970895
31	0x3d068c9d	0.032848943
32	0x3c5cd951	0.013479547
33	0xbcce1c6e	-0.02516004
34	0x3ca24917	0.019810243
35	0xbc8a2ca6	-0.016866993
36	0x3cca8bc9	0.024724858
37	0xbc3d23bc	-0.011544164
38	0xbc55b638	-0.013043933
39	0x3d46429e	0.048403375
40	0x3d6d4d7e	0.05793523
41	0xbc8c225d	-0.01710623
42	0x3d3ab5c1	0.04558349
43	0xbce83ff2	-0.028350804
44	0xbc96676b	-0.01835986
45	0xbc9309f3	-0.01794908
46	0x3ccb4146	0.024811398
47	0x3d167e35	0.036741454
48	0xbc4fc5f8	-0.012681477
49	0x3d208e20	0.03919804
50	0xbd5ebbba	-0.05437825
51	0x3d264fae	0.040603332
52	0x3d4eb7ea	0.050468363
53	0x3abb3920	0.0014283992
54	0x3c504c50	0.012713507
55	0x3d32049a	0.04346142
56	0x3d959ef3	0.07305708
57	0xbc7a215a	-0.015266741
58	0x3cdf5157	0.027260466
59	0xbd2daed8	-0.042403072
60	0x3d550a00	0.05201149
61	0xbcb0bdb9	-0.021574842
62	0xbd008d6b	-0.031384867
63	0x3d90b367	0.07065468

res_blocks.1.conv1.bias f4 [64]
0	0xbb648506	-0.0034869327
1	0xbd807a6b	-0.062733494
2	0xbbab4cc5	-0.0052276575
3	0x3c6b11a3	0.014347467
4	0x3d719bf5	0.058986623
5	0x3c21da7b	0.00987875
6	0xbc96d18d	-0.018410468
7	0xbd062f32	-0.032759853
8	0x3cb268b5	0.021778444
9	0xbc7e7e3d	-0.015533027
10	0x3c87b0ec	0.016563855
11	0xbd141479	-0.036152337
12	0xbd009499	-0.031391714
13	0x3c3c06da	0.011476243
14	0xbbdfb278	-0.006826695
15	0x3ca0aee2	0.01961464
16	0x3d1b3892	0.037895747
17	0xbd35b5c6	-0.044362806
18	0xbd0c611e	-0.034272306
19	0xbc38b39b	-0.01127329
20	0xbc7acd57	-0.015307746
21	0x3d380d32	0.04493446
22	0x3d0b004e	0.033935837
23	0xbc26eefd	-0.010188815
24	0x3c32969a	0.010900164
25	0x3cfaad35	0.03060017
26	0xbacf6379	-0.0015822492
27	0x3d23d5b5	0.03999873
28	0xbce19c2b	-0.027540287
29	0x3d156c20	0.03648007
30	0xbc80fa98	-0.015744492
31	0xbd36f3be	-0.044666044
32	0x3ce5f040	0.028068662
33	0xbcc1a108	-0.023636356
34	0x3b88f06c	0.004179051
35	0x3b81f35c	0.0039657783
36	0x3cb4dfd3	0.022079384
37	0xbb55d90e	-0.0032630595
38	0x3d212400	0.039340973
39	0xbcb62e14	-0.022238769
40	0xbbaf79aa	-0.0053550797
41	0xbbfd8f68	-0.0077380426
42	0xbca020ee	-0.019546952
43	0xbc27a9d2	-0.010233359
44	0xbd2fd790	-0.042930186
45	0x3d5fc3e1	0.054630164
46	0xbd87794a	-0.06614931
47	0x3d38f9b7	0.04516002
48	0x391deef0	0.00015061698
49	0x3bbe4b96	0.0058073504
50	0x3c9e9cb5	0.019361833
51	0x3ad685e0	0.0016366802
52	0x3c6d934b	0.014500449
53	0xbc9dafff	-0.01924896
54	0xbc93a852	-0.018024597
55	0xbd2e1418	-0.04249963
56	0xbc3a3955	-0.011366208
57	0x3cf0f804	0.029415138
58	0xbb3742cd	-0.00279634
59	0xbb1a79c2	-0.0023571108
60	0x3d495878	0.049156636
61	0xbd016b2b	-0.031596344
62	0x3cf8ac01	0.030355455
63	0x3d59f30a	0.053210296

res_blocks.1.conv2.bias f4 [64]
0	0x3940a904	0.0001837351
1	0x3b919237	0.004442479
2	0xbc8803e3	-0.016603416
3	0xbc13e68a	-0.009027133
4	0x3d7bd2d6	0.061480366
5	0x3d20fe9f	0.039305326
6	0x3c6e545f	0.014546483
7	0x3a8bf949	0.0010679151
8	0xbc87c9bb	-0.016575685
9	0x3be35da9	0.0069386554
10	0x3d05e5a3	0.0326897
11	0x3bcb5347	0.006204996
12	0x3a772a35	0.00094285916
13	0x3d0d81cc	0.034547612
14	0xbd34b59e	-0.044118516
15	0x3ccca9d5	0.024983326
16	0xbcb4100a	-0.021980304
17	0xbd412cec	-0.04716198
18	0x39f8d6a9	0.0004746218
19	0x3d4265ec	0.04746048
20	0xbce627ef	-0.028095214
21	0xbc75c498	-0.015000485
22	0x3c536426	0.012902295
23	0x3cc87940	0.024471879
24	0xbb9eb12f	-0.0048428993
25	0x3d155276	0.036455594
26	0x3a1923fc	0.0005841849
27	0xbcc3f366	-0.023919772
28	0x3c073d82	0.008254411
29	0x3c09be67	0.008407212
30	0xbcde419c	-0.027130894
31	0x3d8dedb1	0.06930102
32	0x39577327	0.00020546895
33	0xbd1ea346	-0.03872993
34	0xbc8ec01f	-0.017425595
35	0xbd3f06ef	-0.04663747
36	0xbb359db7	-0.0027712414
37	0xbd1352e6	-0.03596773
38	0xbbd050cc	-0.006357288
39	0x3c19bd63	0.009383532
40	0x3d42ae9d	0.047529805
41	0xbcdacd8e	-0.026709344
42	0x3d182599	0.03714523
43	0xbd280d41	-0.041028265
44	0x3d13da68	0.03609696
45	0xbcaf9d19	-0.021437215
46	0xbd466dfb	-0.04844473
47	0x3cc920f5	0.024551848
48	0x3cc011f4	0.02344606
49	0x3c548217	0.012970469
50	0xbd431c26	-0.047634266
51	0x3d4d0a8b	0.050058883
52	0x3d37b776	0.044852696
53	0xbbdb97d6	-0.00670145
54	0x3c62c1e4	0.013840172
55	0x3b11ba2d	0.0022236214
56	0x3d50c996	0.050973497
57	0xbd11bcd9	-0.03558049
58	0xbc006eb5	-0.007838895
59	0xbce1e0a5	-0.02757294
60	0x3ccf2ebd	0.025290841
61	0x3aae02fc	0.0013276036
62	0xbc3b8387	-0.011444933
63	0x3c53a110	0.012916818

res_blocks.2.conv1.bias f4 [64]
0	0xbd60e3be	-0.054904692
1	0xbcfa9a33	-0.030591106
2	0xbc701a86	-0.014654761
3	0x3c4b6905	0.012415175
4	0xbd910e11	-0.07082761
5	0x3b1cff05	0.0023955714
6	0xbd0b138c	-0.03395419
7	0x3d518371	0.051150743
8	0xbc42e8ba	-0.011896307
9	0x3a00e8ae	0.00049174845
10	0x3d9f043c	0.077644795
11	0x3c24de7e	0.010062812
12	0x3d2938fa	0.041314103
13	0xbcbe0609	-0.023196237
14	0xbbe4df8c	-0.0069846567
15	0x3c98739e	0.018609818
16	0xbd68436c	-0.056704924
17	0x3d4abbfb	0.04949568
18	0xbc22658a	-0.009911904
19	0x3d199bbc	0.037502035
20	0x3d36c630	0.0446226
21	0x3cc13c91	0.02358845
22	0x3cd627b4	0.026141979
23	0x3c2e620d	0.010643494
24	0xbd1cddeb	-0.038297575
25	0x3bb486da	0.0055092396
26	0xbbfe0753	-0.007752338
27	0x3d08812c	0.033326313
28	0x3cf55afc	0.029950611
29	0xbcc1943d	-0.023630256
30	0x3c3759f0	0.011190876
31	0xbcf659df	-0.03007215
32	0x3d7e8891	0.06214196
33	0xbb27a8fd	-0.0025582903
34	0x3bf2b3aa	0.0074066715
35	0xbc81e53d	-0.01585638
36	0xbcce8af7	-0.025212748
37	0x3c3f69b9	0.011682921
38	0x3c94866a	0.0181305
39	0x39befbef	0.0003642733
40	0xbcd47b6f	-0.025937764
41	0x3c2edbc8	0.010672517
42	0xbd3e3947	-0.046441343
43	0x3cc36eb4	0.023856498
44	0xbcdbe39b	-0.02684193
45	0xbd16c900	-0.036812782
46	0x3c871858	0.0164911
47	0xbb8d19d4	-0.0043060575
48	0xbcd46444	-0.025926717
49	0x3c8f2738	0.017474756
50	0x3bd99a73	0.0066407262
51	0x3ce9974c	0.028514527
52	0x3d6bb75f	0.057547923
53	0x3d87d324	0.06632069
54	0xbba14f89	-0.0049228114
55	0x3cbbc44a	0.022920746
56	0x3c401f08	0.011726148
57	0xbd04b8ec	-0.032402918
58	0xbc6d799b	-0.014494325
59	0x3cbf5101	0.023354055
60	0x3c96f7e3	0.018428748
61	0x3c194a8f	0.009356155
62	0x3c43c9cb	0.011949967
63	0x3d12dd8a	0.035855807

res_blocks.2.conv2.bias f4 [64]
0	0xbd190780	-0.03736067
1	0x3d24c14d	0.04022341
2	0xbc04d97e	-0.008108495
3	0xbd16f81c	-0.03685771
4	0x3d0686b5	0.03284331
5	0xbd097042	-0.033554323
6	0x3ca442d2	0.020051394
7	0xbbbbeb02	-0.005734802
8	0x3d189044	0.037246957
9	0xbd5191c0	-0.05116439
10	0x3d01a0a1	0.03164733
11	0xbd6c9ef9	-0.057768796
12	0xba656f84	-0.0008752274
13	0x3d3514f6	0.044209443
14	0xbd15319f	-0.036424275
15	0xbbbf6ed8	-0.005842071
16	0xbcaf96f6	-0.021434288
17	0xbd32d131	-0.04365653
18	0xbbb356be	-0.005472987
19	0x3d327f4d	0.043578435
20	0x3ced1cd3	0.028944409
21	0xbd239f3c	-0.03994678
22	0x3cf9db6b	0.030500134
23	0xbd0e317a	-0.034715153
24	0xbb12abf8	-0.0022380333
25	0x3d2fdf29	0.04293743
26	0xbc4cbf30	-0.0124967545
27	0xbcac1339	-0.02100526
28	0x3cd53986	0.026028406
29	0x3ca19a28	0.019726828
30	0xbd66f064	-0.056381598
31	0x3d502589	0.050817046
32	0xbd29f505	-0.041493434
33	0x3ccd7f6d	0.025085175
34	0xbd2a808a	-0.04162649
35	0x3c13485d	0.008989421
36	0xbd092069	-0.033478174
37	0x3b171680	0.0023054183
38	0xbcc1c660	-0.023654163
39	0x3d343b26	0.04400172
40	0xbb9a783b	-0.0047140396
41	0xbc8a5e7d	-0.016890759
42	0xbc25d23e	-0.010120926
43	0x3c85dfd2	0.016342077
44	0xbc9cc509	-0.019136922
45	0x39401be4	0.00018320937
46	0x3c99df42	0.018783215
47	0xbb6a6184	-0.003576369
48	0xbcc7139c	-0.024301343
49	0xbca50182	-0.02014232
50	0xbcbb9c3f	-0.022901652
51	0x3d1c3575	0.038136918
52	0x3a479059	0.0007612757
53	0xbd0e791b	-0.034783464
54	0xbb9772dd	-0.004621847
55	0xbd392d86	-0.04520943
56	0x3cc85933	0.024456596
57	0x3ca3358e	0.019922998
58	0x3cd6c86c	0.026218615
59	0xbc270fb9	-0.01019662
60	0x3d7fcd8d	0.062451888
61	0xbc18fedc	-0.009338107
62	0x3bdca3ca	0.0067333924
63	0x3d31d42f	0.043415245

res_blocks.3.conv1.bias f4 [64]
0	0x3d37c79c	0.044868097
1	0xbd2d0b79	-0.04224727
2	0x3bd8b22f	0.006613038
3	0xbb69d358	-0.003567895
4	0xbcc51c64	-0.02406139
5	0x3c8fb4e3	0.017542308
6	0xbd81e605	-0.06342701
7	0xbc015826	-0.007894551
8	0xbd08be7c	-0.033384785
9	0xbb3f392a	-0.002917836
10	0x3c1f50d1	0.009723858
11	0xbcb8d44b	-0.022562167
12	0x3c119f9d	0.008888152
13	0x3caf353b	0.021387687
14	0x3d0c4f0a	0.034255065
15	0x3d230290	0.039797366
16	0x3c44875f	0.011995166
17	0xbbe5c753	-0.0070122867
18	0xbc5b9a78	-0.013403527
19	0xbbbe5167	-0.0058080438
20	0xbcd77e88	-0.026305452
21	0x3c12f239	0.008968883
22	0x3d3121fc	0.0432453
23	0xbbc506d6	-0.006012778
24	0xbc90eab8	-0.017690048
25	0xbd2cc451	-0.04217941
26	0xbc08872e	-0.008333011
27	0x3d92be87	0.071652465
28	0xbc8b2a82	-0.016988043
29	0xbb552bcf	-0.0032527333
30	0xbb497b2f	-0.003074359
31	0x3cb9eb37	0.022695167
32	0xbcf1f1b7	-0.029534204
33	0xbd678314	-0.05652149
34	0x3bf738cf	0.007544614
35	0x3c22232b	0.00989608
36	0x3c69432b	0.0142372055
37	0xbcf06cb2	-0.029348705
38	0xbcf6f3e1	-0.030145587
39	0x3c88c695	0.016696254
40	0xbbebcdcd	-0.007196164
41	0xbabf1523	-0.0014578443
42	0x3c77f040	0.015132964
43	0x3d92f81f	0.071762316
44	0x3d052f30	0.032515705
45	0xbccc0027	-0.024902416
46	0xbc1c9236	-0.009556344
47	0x3d65745d	0.056019176
48	0x3b94b240	0.0045378506
49	0xbcc544ac	-0.024080597
50	0xbd474c47	-0.048656728
51	0xbd20c828	-0.039253384
52	0x3beeae41	0.0072839563
53	0x3d65954b	0.05605058
54	0xbd9e5f83	-0.07733061
55	0xbc5e61de	-0.013573138
56	0xbd1967f0	-0.03745264
57	0xbd4fb17f	-0.050706383
58	0x3bcac07a	0.006187496
59	0x3cb813e1	0.022470417
60	0xbd1b797c	-0.037957653
61	0x3afad1b9	0.0019135989
62	0xbcf8b978	-0.030361876
63	0x3d34142a	0.043964542

res_blocks.3.conv2.bias f4 [64]
0	0x3cafaf9e	0.021446045
1	0xbbe90e58	-0.0071123056
2	0xbb271792	-0.0025496227
3	0x3d6029c6	0.05472734
4	0x3c8bf7c3	0.017085915
5	0xbcbb89c2	-0.022892836
6	0x3c7a5c95	0.015280862
7	0xbc40db1e	-0.011770992
8	0x3c8da321	0.0172897
9	0x3c8a96c9	0.016917603
10	0xbc08dae2	-0.008352967
11	0x3c10b553	0.008832294
12	0x3b8a1a84	0.0042145867
13	0x3c18a3db	0.00931641
14	0x37fe09a8	3.0283656e-05
15	0xbbce4416	-0.0062947376
16	0x3d0c8f34	0.034316257
17	0x3d8b09ed	0.067890026
18	0xbc011159	-0.007877671
19	0xbcaca167	-0.021073056
20	0x3c905f1d	0.017623479
21	0xbd113cda	-0.035458423
22	0x3bd4d729	0.0064953757
23	0x3d191d37	0.037381377
24	0x3cec4fdc	0.028846674
25	0x3cdbe382	0.026841883
26	0xbd45575d	-0.04817902
27	0x3cccb248	0.024987355
28	0x3cd75cc1	0.026289346
29	0xbcd1d453	-0.02561394
30	0x3cd745f8	0.02627848
31	0x3d0fa61e	0.03507053
32	0xbbcc173f	-0.006228357
33	0xbd55a0bd	-0.052155245
34	0xbd506300	-0.050875664
35	0x3cea1892	0.02857617
36	0xbc8519a3	-0.016247576
37	0xbd2aa5af	-0.041661914
38	0x3cafcac3	0.021458989
39	0xbc8ce066	-0.017196845
40	0xbb3b72b5	-0.0028602306
41	0xbca32a2a	-0.019917566
42	0x3d2018c0	0.039086103
43	0xbb9f7e83	-0.0048673763
44	0x3b03faa9	0.0020138419
45	0xbc8419c6	-0.016125571
46	0xbd305309	-0.04304794
47	0x3cdd80e0	0.027038991
48	0x3dbb261c	0.09138128
49	0xbc5556c7	-0.013021178
50	0xbc76063e	-0.015016137
51	0x3d60226b	0.054720324
52	0x3d2436fd	0.040091503
53	0xbc97a0b9	-0.018509256
54	0x3cfc28cb	0.03078117
55	0x3cec69c3	0.028859025
56	0x3d157be6	0.036495112
57	0x3c9cb9d4	0.019131579
58	0x3d7eb57a	0.06218479
59	0x3c97e64f	0.018542437
60	0xbc9877e8	-0.018611863
61	0x3d0569f5	0.03257175
62	0x3cc6f272	0.024285529
63	0x3d94ce72	0.07265939

res_blocks.4.conv1.bias f4 [64]
0	0xbc995f4d	-0.0187222
1	0xbd159532	-0.036519237
2	0x3d77b50e	0.0604754
3	0xbd58f179	-0.05296466
4	0xbca2c7a3	-0.019870585
5	0x3d866437	0.06562083
6	0xbb5068a3	-0.003180065
7	0x3c05d12a	0.008167544
8	0xbd1cf3b5	-0.038318355
9	0xbc3d2cfa	-0.011546368
10	0xbd0ffa44	-0.03515078
11	0x3ceccf44	0.028907426
12	0x3badc12c	0.005302569
13	0x3d2f685d	0.042824138
14	0xbd0cd292	-0.034380503
15	0xbd193eb4	-0.037413314
16	0x3cc5e938	0.024159059
17	0x3c3eec80	0.011653066
18	0xbd04646f	-0.032322343
19	0x3d66cd2b	0.056348007
20	0x3c0ab25d	0.008465377
21	0x3c876615	0.016528169
22	0xbd171d7b	-0.03689335
23	0xbcbda103	-0.023148065
24	0xbc8107f0	-0.015750855
25	0x3d136b22	0.03599084
26	0xbc882a54	-0.016621746
27	0x3d033994	0.032037333
28	0x3d0ae03e	0.03390526
29	0xbd0c1805	-0.034202594
30	0x3d74e441	0.059787992
31	0x3a05ea13	0.0005108427
32	0x3d3374c2	0.04381252
33	0xbd82dc67	-0.06389695
34	0xbcdcd8d8	-0.026958868
35	0x3c069db6	0.008216312
36	0x3ce924d1	0.028459938
37	0xbd024e31	-0.03181285
38	0xbd431838	-0.04763052
39	0x3d421c14	0.04739006
40	0x3d294c88	0.04133275
41	0x3d2c70e7	0.04209986
42	0xbc218d8a	-0.009860406
43	0x3bac7d60	0.0052639693
44	0xbdc60b5f	-0.096701376
45	0x3dbcd31a	0.09219952
46	0xbb3ad45e	-0.0028507928
47	0xbd0b7867	-0.03405037
48	0xbcc2f2a7	-0.023797346
49	0xbcc0c7b0	-0.023532718
50	0x3beb28b6	0.007176484
51	0xbd1641ea	-0.036683954
52	0x3c93f088	0.01805903
53	0xbd2427e3	-0.0400771
54	0x3d402701	0.046912197
55	0xbd0c22e9	-0.03421298
56	0xbb91571a	-0.004435432
57	0xbd088776	-0.03333231
58	0x3cc35170	0.023842543
59	0x3d1a5621	0.037679795
60	0x3d0efec0	0.034910917
61	0x3b9db15f	0.004812404
62	0xbd0121c9	-0.03152636
63	0xbcce87d4	-0.025211252

res_blocks.4.conv2.bias f4 [64]
0	0xbc461069	-0.012088873
1	0x3d185bd8	0.037196964
2	0x3cacb77b	0.021083584
3	0x3d0db632	0.034597583
4	0x3c548cbc	0.012973007
5	0x3adb524e	0.0016732903
6	0x3cc47492	0.023981366
7	0xbd43a81b	-0.04776774
8	0x3c62b064	0.013836
9	0x3c42b91e	0.011884956
10	0x3c80a21f	0.015702305
11	0xbd00611e	-0.03134262
12	0xbc2d48af	-0.010576411
13	0x3cf98a4e	0.030461457
14	0xbd864c62	-0.065575376
15	0x3d92d4d3	0.07169499
16	0xbc9b59b8	-0.01896368
17	0x3caea0e9	0.021316962
18	0x3cb77000	0.022392273
19	0xbd3e6403	-0.046482097
20	0x3abb1ac2	0.0014274942
21	0x3d1f9e34	0.038969234
22	0x3ca2127e	0.019784208
23	0x3d2b7c96	0.04186686
24	0x3cb21154	0.021736778
25	0xbc03d283	-0.008045795
26	0xbad1750c	-0.0015980317
27	0xbc5214c0	-0.01282233
28	0xbb3994fe	-0.0028317566
29	0xbbe1ff6e	-0.0068969047
30	0xbbcfe2a6	-0.0063441573
31	0xbc2069c3	-0.009790841
32	0xbd7333ff	-0.05937576
33	0xbd137557	-0.036000576
34	0x3be6e625	0.0070464783
35	0x3c9e872e	0.019351568
36	0x3c239bc5	0.009985869
37	0xbc938207	-0.018006338
38	0x3d539426	0.051654957
39	0x3bcfbfc0	0.006339997
40	0xbce6bc7d	-0.02816605
41	0xbd071458	-0.032978386
42	0x3c84fa4a	0.016232628
43	0x3d23a097	0.039948072
44	0x3d03fda0	0.032224298
45	0xbb9d1b68	-0.004794527
46	0x3bdc4fed	0.006723395
47	0x3b873ba7	0.004126984
48	0x3c6443cf	0.013932182
49	0xbc36c7aa	-0.011156002
50	0xbcfab78f	-0.030605106
51	0xbcf1c813	-0.029514348
52	0x3cb51521	0.022104802
53	0xbb150efb	-0.0022744525
54	0x3cfd92d3	0.0309538
55	0xbcb86362	-0.022508327
56	0xbd0ad2e6	-0.033892535
57	0xbd2a5f31	-0.041594688
58	0x3d036fe5	0.032089133
59	0x3d124347	0.035708692
60	0x3d57cb87	0.052684333
61	0x3d0afc7e	0.0339322
62	0x3d40707d	0.046982277
63	0x3c07fd42	0.008300127

policy_head.conv.bias f4 [32]
0	0xbc22f98e	-0.009947194
1	0xbcfeaf54	-0.031089462
2	0xbe0bf98f	-0.13669418
3	0xbd164e26	-0.036695622
4	0xbd3e07c3	-0.04639412
5	0xbcdcca83	-0.026952034
6	0xbe00bbc7	-0.12571631
7	0xbde3f0ea	-0.11129935
8	0xbbf80eba	-0.007570115
9	0xbde08ff0	-0.10964954
10	0xbdbafe5f	-0.09130549
11	0x3d1d45db	0.038396697
12	0xbe0431ce	-0.12909624
13	0x3dae186e	0.08500753
14	0x3c858782	0.016299967
15	0x3d6930d9	0.05693135
16	0xbdad36ef	-0.084577434
17	0xbdef439b	-0.116828166
18	0x3dce1347	0.100622706
19	0xbc46322b	-0.012096922
20	0xbdde4b03	-0.10854151
21	0x3d9f6c6b	0.07784351
22	0x3cf86741	0.030322673
23	0xbe043e5d	-0.12914415
24	0x3da46612	0.08027281
25	0xbe1246a7	-0.14284764
26	0xbdab6abc	-0.08369967
27	0xbd0a951b	-0.033833604
28	0xbc8a5932	-0.016888235
29	0xbe1da3a4	-0.15394455
30	0x3c4c6400	0.012475014
31	0x3d25997f	0.04042959

policy_head.fc.bias f4 [7]
0	0xbbaf457c	-0.0053488594
1	0x3cd865e1	0.026415767
2	0x3d5ca8eb	0.05387203
3	0xbc390237	-0.011292032
4	0x3bdea1ea	0.006794204
5	0x3cb3fef6	0.02197216
6	0xbc3b6069	-0.01143656

value_head.conv.bias f4 [32]
0	0x3d8f8cff	0.07009315
1	0x3d28971c	0.041159734
2	0x3d3c93f5	0.04603954
3	0xbd0a0d53	-0.033704113
4	0x3da9f4f3	0.082986735
5	0xbd1be2f4	-0.038058236
6	0x3c9e2891	0.019306453
7	0x3c5b513d	0.013386068
8	0xbd0f6c2c	-0.03501527
9	0xbd740c5c	-0.0595821
10	0xbdb3fa59	-0.087879844
11	0x3ddc5d8c	0.1076003
12	0xbc8cf336	-0.017205816
13	0x3deb020c	0.11475
14	0x3cadeb6a	0.021230418
15	0xbc72a021	-0.0148086855
16	0x3c2e41a5	0.010635768
17	0x3d470229	0.048586044
18	0xbd9c7bff	-0.07640838
19	0xbdb3fd68	-0.08788568
20	0xbde92bed	-0.11385331
21	0x3d7bf55d	0.061513294
22	0xbc7a2460	-0.015267462
23	0x3d31ba13	0.043390345
24	0x3ddfeb51	0.10933555
25	0xbd0614aa	-0.03273455
26	0xbe075d3c	-0.1321916
27	0xbd1c96b1	-0.038229648
28	0xbd97aa6b	-0.074055515
29	0xbc8587c3	-0.016300088
30	0x3bc6b9fa	0.0060646506
31	0x3dee0f24	0.116239816

value_head.fc1.bias f4 [64]
0	0x3afd338e	0.0019317733
1	0x3cb7124a	0.022347588
2	0x3c853561	0.016260805
3	0xbd0caff3	-0.034347486
4	0x39f8aaee	0.000474296
5	0x3c5a86eb	0.013337831
6	0x3bf857f4	0.007578844
7	0xbc8a3608	-0.016871467
8	0xbceb9b31	-0.028760524
9	0xbcf41963	-0.029797262
10	0x3cd42308	0.02589561
11	0x3c8bc464	0.01706142
12	0x3c4a9bcd	0.012366247
13	0x3cc70fba	0.024299491
14	0xbc8b57d2	-0.01700965
15	0xbc057072	-0.008144485
16	0xbc9696de	-0.018382486
17	0x3d1fd211	0.039018694
18	0xbcf7bfac	-0.030242763
19	0xbbe76c78	-0.007062491
20	0xba96dfde	-0.0011510809
21	0x3ce5277d	0.027972931
22	0x3c8e6f57	0.017387075
23	0x3c19e33e	0.009392558
24	0xbc9604f1	-0.018312903
25	0x3c835430	0.016031355
26	0xbc8322b6	-0.016007762
27	0xbc2b1e1f	-0.010444193
28	0xbc999e52	-0.01875225
29	0xbb8d2901	-0.0043078666
30	0xbcf622ad	-0.030045832
31	0xbd0446ab	-0.032293957
32	0x3c06f345	0.008236711
33	0xbd10ae8a	-0.035322703
34	0xbca26ac2	-0.019826297
35	0xbbef8261	-0.0073092435
36	0x3c48104e	0.012210919
37	0xbb7a5bee	-0.0038201767
38	0xbc8d42ba	-0.017243732
39	0x3b6a5989	0.0035758934
40	0xbd0e22cf	-0.034701165
41	0x3ca015c7	0.019541634
42	0x3c7e7dc4	0.015532915
43	0x3a9733ff	0.0011535882
44	0xbc446cf8	-0.011988871
45	0x3c09623d	0.008385238
46	0x3c014923	0.007890972
47	0xbd8701da	-0.0659215
48	0xbd06bcfe	-0.03289508
49	0x3c8647d7	0.016391678
50	0xbd7c827d	-0.06164788
51	0x3c026360	0.007958263
52	0xbc662c08	-0.014048584
53	0xbc92489a	-0.017856885
54	0xbcf5115d	-0.029915506
55	0xbc31ca35	-0.010851433
56	0xbd086c3b	-0.03330634
57	0xbc9df9f1	-0.01928422
58	0xbd5a5b23	-0.05330957
59	0xbcdaaa88	-0.026692644
60	0x3c148fe1	0.0090675065
61	0xbcfdfaa9	-0.031003313
62	0xbd03b29d	-0.03215276
63	0xba96eab0	-0.0011514034

value_head.fc2.weight f4 [1, 64]
0	0x3dc0718a	0.09396656
1	0x3e2f025f	0.17090748
2	0xbbb0fe45	-0.005401405
3	0x3e759584	0.23982817
4	0xbdc527df	-0.096267454
5	0x3df3371f	0.11875748
6	0x3e0f6802	0.1400452
7	0x3d87363e	0.06602143
8	0x3e1157ee	0.14193699
9	0x3d345824	0.04402937
10	0x3dcd0238	0.10010189
11	0x3dc3b4c5	0.095559634
12	0x3db14d75	0.08657352
13	0x3ddf19f2	0.108936206
14	0xbdc9890b	-0.09840592
15	0xbe0828ea	-0.13296857
16	0xbdc16009	-0.094421454
17	0x3e0e5e28	0.13903105
18	0xbd5e40e8	-0.05426112
19	0xbd8d557c	-0.069010705
20	0xbd86d54f	-0.06583654
21	0x3ddc6dbd	0.107631184
22	0x3dec042c	0.11524233
23	0xbe06aa74	-0.1315096
24	0xbe0be766	-0.1366249
25	0x3e309ca0	0.17247248
26	0xbdb4e153	-0.0883204
27	0x3d52e1d3	0.051484894
28	0xbdd4219f	-0.10357975
29	0xbdfc99d7	-0.1233403
30	0xbe1669ce	-0.14688799
31	0xbda41b31	-0.08012999
32	0x3dcf8bf4	0.10134116
33	0xbdb23826	-0.08702116
34	0xbdabd5a5	-0.08390359
35	0xbdc5a6f3	-0.09650984
36	0xbd5189b2	-0.051156707
37	0xbe5675d3	-0.20943384
38	0xbd833cd0	-0.064080834
39	0x3e1b1d22	0.15147832
40	0x3d886d6c	0.066614956
41	0x3e0456f2	0.12923792
42	0x3ced4aca	0.028966326
43	0xbd703cd3	-0.058651756
44	0x3dc09811	0.09404004
45	0xbdcd9a28	-0.100391686
46	0xbd1a5b9b	-0.037685018
47	0xbe125529	-0.14290299
48	0x3cbaa70c	0.022784732
49	0xbe73794e	-0.23776743
50	0xbe423a32	-0.18967512
51	0xbe16e40c	-0.1473543
52	0xbe0ac142	-0.13550285
53	0xbd39ca7b	-0.045359116
54	0x3b49f19d	0.0030814179
55	0x3e0a50f7	0.13507448
56	0xbb02d6ad	-0.0019964383
57	0x3e1add8a	0.15123573
58	0xbd1b26c4	-0.037878767
59	0xbd58d3cc	-0.05293636
60	0x3e0d5fc0	0.13806057
61	0xbcb0cdd5	-0.021582523
62	0xbe9316a4	-0.2872821
63	0x3e87738f	0.26455352
